data.pth (torch, 7978 bytes, 6 tensors)

l1.weight f4 [8, 103]
-0.9005179 0.48152065 -0.16623762 -0.0990164 0.7833725 0.6246591 0.5971182 -0.15680273
-0.22893804 -0.38206244 0.10229818 -0.21328045 0.071809866 0.45555365 0.77396923 0.5322667
1.0268936 0.29078636 -0.21606545 -0.73351926 -0.7491988 0.6094601 0.74840623 0.5518517
0.60493565 0.5648866 -0.011656919 0.0904458 -0.6005368 0.7313048 0.18619508 0.35681218
0.4681243 -0.033948317 0.49944866 -0.3573888 0.15910785 0.83133584 -0.038272608 0.81674844
0.8360854 1.1457053 0.33659568 0.5630482 0.28758827 -0.33734116 0.21209992 0.2372428
-0.49464923 0.5526324 -0.13418216 0.46857402 -0.13871379 0.5127558 0.9173385 -0.08063318
0.5223911 0.72089493 -0.024512343 0.25434294 -0.29325804 0.18816173 0.53190756 0.59910756
0.09292517 0.49840313 0.14774309 0.46052924 -0.18745068 -0.29864398 0.5686437 -0.2721465
0.4898062 0.63484263 0.3070144 0.48247167 1.0848999 -0.3678842 -0.12842055 -0.1125858
-0.6689733 0.18114671 0.5726609 0.6938231 -0.7942357 0.30889505 0.67824775 0.57027
0.29691976 -0.74266887 0.046210047 0.9624624 0.02869214 0.117297955 0.23944086 0.1792899
0.50376046 0.6689539 -0.30838585 0.74089324 -0.3705723 -0.04685352 0.570152 -0.16889451
-0.34785387 0.54551804 0.62571824 0.29814774 0.24862252 -0.54340965 0.1599436 0.31478387
0.17672096 0.11438855 0.4860744 0.5817417 0.3592012 -0.5474994 0.37841383 -0.17616072
-0.13959269 0.51800495 -0.4900162 -0.60668963 0.2643406 -0.5209799 0.14530225 -0.98425096
0.4432872 0.23980056 0.36823684 -0.35950124 -0.33101225 0.46957237 -0.4253512 0.2617258
0.28171304 0.15517743 0.16133231 -0.085667074 0.33495829 -0.1943609 0.35677242 0.30400884
-0.37450227 0.20871326 0.46437675 -0.2341866 0.16359757 0.57135206 -0.046119817 -0.42351946
-0.51933855 -0.31337094 -0.3010668 -0.044745665 0.39183494 -0.45035487 0.22600143 -0.29009455
0.46805325 0.6360267 0.17611587 0.6737268 -0.05179586 -0.40814126 -0.025478683 0.21097794
0.17069444 0.5689887 -0.11109856 0.5850144 0.50889266 -0.1718321 0.6117921 -0.5746011
-0.0682427 0.5072192 -0.32133922 0.3628207 0.4518131 1.0921874 0.083400205 -0.7511444
0.22062199 -0.56520075 -0.3591455 -0.71438044 -0.44216487 0.32324457 0.35295528 0.055136982
-0.29115736 -0.22856894 0.60497606 -0.055161737 0.011367922 -0.044062525 -0.034521088 -0.41690233
-0.5956725 -0.3749256 0.72003657 0.4147822 0.31323132 -0.44032884 0.5589717 -0.090317614
0.06123752 0.52847326 0.3894417 -0.2710954 0.09393133 0.2745163 0.34614748 -0.7184959
0.45003653 0.3198195 0.3820282 0.08889949 -0.066056706 0.17801522 -0.38592702 0.3987514
0.3883821 -0.24502285 0.38598526 0.10527851 -0.13527198 -0.023493854 -0.65206623 0.0335899
0.15053214 -0.026919553 0.019511787 0.18364772 0.6440379 -0.35535845 0.44376317 -0.27502164
0.090906784 -0.71875644 0.32363752 0.10130596 0.5411073 0.10260471 0.073736034 -0.07936864
0.18651016 0.10873775 0.101603106 -0.58533984 0.24464652 0.17290647 0.09566372 -0.5757128
00000000: 5788 66bf e089 f63e 323a 2abe 1cc9 cabd
00000010: 1a8b 483f a9e9 1f3f bddc 183f e590 20be
00000020: bc6e 6abe b09d c3be b581 d13d 3166 5abe
00000030: 0d11 933d 543e e93e d922 463f a142 083f
00000040: 4071 833f f3e1 943e 4340 5dbe ebc7 3bbf
00000050: 7ecb 3fbf 9405 1c3f 8d97 3f3f 2746 0d3f
00000060: 10dd 1a3f 699c 103f a9fc 3ebc a63b b93d
00000070: c8bc 19bf cb36 3b3f eca9 3e3e 16b0 b63e
00000080: fdad ef3e 640d 0bbd bcb7 ff3e aafb b6be
00000090: 2bed 223e 6dd2 543f bdc3 1cbd 6d16 513f
000000a0: b109 563f 79a6 923f 4556 ac3e ed23 103f
000000b0: c53e 933e fbb7 acbe b930 593e c7ef 723e
000000c0: aa42 fdbe 5179 0d3f 0c67 09be efe8 ef3e
000000d0: fd0a 0ebe f743 033f b2d6 6a3f 0223 a5bd
000000e0: 6cbb 053f 928c 383f 1cce c8bc 3d39 823e
000000f0: eb25 96be 78ad 403e 182b 083f 1d5f 193f
00000100: 8d4f be3d b22e ff3e f749 173e 7dca eb3e
00000110: 12f3 3fbe dde7 98be a292 113f c956 8bbe
00000120: e1c7 fa3e 0c85 223f fe30 9d3e 8706 f73e
00000130: 00de 8a3f 515b bcbe ad80 03be 6293 e6bd
00000140: d641 2bbf 867e 393e e899 123f 649e 313f
00000150: 0853 4bbf 7e27 9e3e a5a1 2d3f 37fd 113f
00000160: de05 983e 8c1f 3ebf bf46 3d3d f063 763f
00000170: c70b eb3c e939 f03d fc2f 753e c697 373e
00000180: 72f6 003f 9040 2b3f c0e4 9dbe 2eab 3d3f
00000190: a7bb bdbe 7ae9 3fbd 7bf5 113f aff2 2cbe
000001a0: e719 b2be 12a7 0b3f 122f 203f d2a6 983e
000001b0: e796 7e3e e51c 0bbf 41c8 233e 5a2b a13e
000001c0: 57f6 343e 8b44 ea3d bede f83e 06ed 143f
000001d0: 38e9 b73e ec28 0cbf 75bf c13e 7a63 34be
000001e0: 63f1 0ebe f99b 043f 67e3 fabe 0350 1bbf
000001f0: a757 873e f05e 05bf 1dca 143e dff7 7bbf
00000200: 8af6 e23e 478e 753e 8a89 bc3e 8c10 b8be
00000210: 707a a9be ca6b f03e a2c7 d9be ed00 863e
00000220: b13c 903e d5e6 1e3e 4c34 253e 3872 afbd
00000230: a77f ab3e 8b06 47be e0aa b63e 0ca7 9b3e
00000240: c3be bfbe eeb8 553e cac2 ed3e 9dce 6fbe
00000250: 1f86 273e 2144 123f 22e8 3cbd 8bd7 d8be
00000260: 5ff3 04bf 2872 a0be 6d25 9abe 3b47 37bd
00000270: 979e c83e ea94 e6be eb6c 673e 4687 94be
00000280: ada4 ef3e a5d2 223f b857 343e 5c79 2c3f
00000290: e527 54bd e4f7 d0be acb8 d0bc 9a0a 583e
000002a0: 86ca 2e3e 3ea9 113f a487 e3bd 81c3 153f
000002b0: ca46 023f c1f4 2fbe 689e 1c3f 0f19 13bf
000002c0: d4c2 8bbd 1ed9 013f 9386 a4be a3c3 b93e
000002d0: 0c54 e73e cccc 8b3f bacd aa3d 004b 40bf
000002e0: bbea 613e ffb0 10bf ebe1 b7be a3e1 36bf
000002f0: 6f63 e2be 5080 a53e 8eb6 b43e 51d7 613d
00000300: 9412 95be fa0d 6abe b6df 1a3f 46f1 61bd
00000310: 8540 3a3c e87a 34bd fc65 0dbd 3974 d5be
00000320: fe7d 18bf 40f6 bfbe 5154 383f 555e d43e
00000330: db5f a03e c872 e1be c518 0f3f 71f8 b8bd
00000340: 32d4 7a3d 064a 073f e764 c73e 04cd 8abe
00000350: 125f c03d 678d 8c3e 3e3a b13e 59ef 37bf
00000360: 306b e63e 62bf a33e 3399 c33e f010 b63d
00000370: bd48 87bd 9f49 363e 3a98 c5be 2529 cc3e
00000380: 05da c63e 45e7 7abe dc9f c53e 429c d73d
00000390: bd84 0abe 2f76 c0bc d0ed 26bf 9095 093d
000003a0: 1925 1a3e 6586 dcbc 2fd7 9f3c 260e 3c3e
000003b0: abdf 243f 8bf1 b5be ed34 e33e a3cf 8cbe
000003c0: 562d ba3d 6c00 38bf d1b3 a53e 8079 cf3d
000003d0: 0286 0a3f 6b22 d23d eb02 973d 078c a2bd
000003e0: 85fc 3e3e e6b1 de3d 4a15 d03d d5d8 15bf
000003f0: 9e84 7a3e 650e 313e 57eb c33d ea61 13bf

l1.bias f4 [8]
0.7426551 0.63595057 0.7186322 1.0475171 1.0646126 1.1565925 0.6621489 0.9447064
00000000: a51e 3e3f a8cd 223f 48f8 373f 0a15 863f
00000010: 3a45 883f 390b 943f 9782 293f 47d8 713f

l2.weight f4 [8, 8]
0.28702754 0.8476157 0.13242821 0.17684999 0.9062373 -1.3557112 1.258945 -0.9282282
1.6869643 0.00414898 0.20129949 0.87454075 -1.4594305 -0.008472751 1.6022553 0.283093
1.1163415 -1.5908748 -0.023818076 1.3318921 -0.6306256 -0.6980461 1.1178317 -1.0829321
0.07239342 1.4825683 1.1860313 -1.2427133 0.2471067 -0.9249406 0.8847178 0.2200305
1.8594124 1.2099581 0.20168437 -0.8645738 -0.04912344 0.7845518 0.3663983 2.016218
-0.09838608 0.6483114 -0.07280114 2.0260499 1.6492172 0.9450262 -0.19967662 1.5253698
-0.19886613 0.5333397 1.4631745 -0.038918637 0.3941155 1.1567831 0.14123923 -1.3635299
0.16705991 -0.73304784 0.99819255 0.03212897 0.45166695 1.2066981 1.1368728 -0.76857316
00000000: 46f5 923e 58fd 583f 439b 073e 2a18 353e
00000010: 2bff 673f f287 adbf 1c25 a13f 5da0 6dbf
00000020: 72ee d73f 2bf4 873b 7421 4e3e e7e1 5f3f
00000030: 9ece babf 4bd1 0abc b416 cd3f 91f1 903e
00000040: 47e4 8e3f c9a1 cbbf 201e c3bc 717b aa3f
00000050: ae70 21bf 26b3 32bf 1c15 8f3f 859d 8abf
00000060: 0043 943d ccc4 bd3f e0cf 973f 3b11 9fbf
00000070: 8a09 7d3e e8c8 6cbf de7c 623f ad4f 613e
00000080: 3a01 ee3f e8df 9a3f 5986 4e3e b554 5dbf
00000090: a935 49bd 63d8 483f 8f98 bb3e b709 0140
000000a0: a47e c9bd bcf7 253f c418 95bd cdaa 0140
000000b0: 8d19 d33f 3ded 713f 0778 4cbe 513f c33f
000000c0: 90a3 4bbe f388 083f 4d49 bb3f 2669 1fbd
000000d0: 82c9 c93e 7811 943f 04a1 103e 2688 aebf
000000e0: c111 2b3e 06a9 3bbf 8c89 7f3f ab99 033d
000000f0: e440 e73e 1575 9a3f 0c85 913f 36c1 44bf

l2.bias f4 [8]
0.20069154 0.43034455 0.77501166 0.22901854 0.115332544 0.6729972 0.47256213 -0.047768086
00000000: 1582 4d3e 1f56 dc3e 2a67 463f d683 6a3e
00000010: 7833 ec3d 8b49 2c3f aaf3 f13e 78a8 43bd

l3.weight f4 [15, 8]
0.45949608 -0.16845365 -0.12211096 -0.2713041 -0.6109568 0.5312003 -0.81332797 -1.1202935
0.16598 0.76269287 0.2567527 0.027845845 0.0563263 -1.619633 -0.122868635 -0.6888492
-1.3407768 0.24571352 0.15149525 -0.52551895 -0.0040897075 -1.3277843 0.62275535 0.8790339
0.24285275 -1.3985933 -0.007510446 0.27157828 -0.6990206 -0.28936252 0.39343822 0.3100226
-1.6705837 0.70369977 -0.049516145 -1.3062625 0.092040665 -0.29156035 -1.1897671 0.0673001
0.29168594 0.45830122 0.7307438 -1.2839985 -0.5227375 -0.5534065 -0.639536 0.07649191
-0.28034824 0.56617236 0.8583644 -1.9332826 -1.0468458 0.33709544 -0.9546496 -1.9828892
-1.6828517 -1.7142625 -0.9374291 -1.8506109 0.6134199 0.9208688 -1.1223046 -2.5805395
-1.4924432 0.13911197 -1.4605148 -1.8120652 0.18767807 0.4658897 0.006701191 -0.25966272
0.023285747 0.08728749 0.54739803 -2.1890957 -1.9650202 0.082767084 0.36998248 0.022801932
-0.3795993 0.44009086 -0.9990105 0.59627 0.33951816 -0.7832613 -0.5319424 -1.6457173
-1.0053058 -1.3574659 -0.8110421 0.68222266 0.4676359 0.046577238 0.091401845 -1.5141736
0.59716177 0.21954998 -0.82624406 0.699346 -0.258966 -1.719527 0.4117135 -0.27976802
-0.37995213 0.008425359 -1.5889088 0.008393809 0.18166417 -0.4106721 -0.11235301 0.20725831
-1.6608381 -1.4869996 -1.116282 -0.95986754 -0.8587885 0.45153362 0.9230437 0.39508665
00000000: 1243 eb3e 1d7f 2cbe 5015 fabd 5fe8 8abe
00000010: aa67 1cbf befc 073f 4336 50bf c765 8fbf
00000020: a9f6 293e d73f 433f 1775 833e f81c e43c
00000030: 68b6 663d 2250 cfbf 8da2 fbbd 6c58 30bf
00000040: 939e abbf 539c 7b3e 9221 1b3e 6988 06bf
00000050: f402 86bb d6f4 a9bf e56c 1f3f 5e08 613f
00000060: 64ae 783e 1b05 b3bf 301a f6bb 4f0c 8b3e
00000070: 04f3 32bf 5327 94be bc70 c93e 48bb 9e3e
00000080: b0d5 d5bf ab25 343f 71d1 4abd 9c33 a7bf
00000090: d17f bc3d 6647 95be 4a4a 98bf a3d4 893d
000000a0: dc57 953e 75a6 ea3e 0712 3b3f 105a a4bf
000000b0: 20d2 05bf 0cac 0dbf a2b8 23bf caa7 9c3d
000000c0: ce89 8fbe acf0 103f c5bd 5b3f ce75 f7bf
000000d0: 0bff 85bf c697 ac3e eb63 74bf 50cf fdbf
000000e0: af67 d7bf f46c dbbf 5afb 6fbf d1e0 ecbf
000000f0: 1609 1d3f 0fbe 6b3f ada7 8fbf 8f27 25c0
00000100: 6108 bfbf 5e73 0e3e 26f2 babf c1f1 e7bf
00000110: ae2e 403e 1889 ee3e aa95 db3b 83f2 84be
00000120: c0c1 be3c c9c3 b23d 4722 0c3f 251a 0cc0
00000130: c885 fbbf ca81 a93d 586e bd3e 1ecb ba3c
00000140: d75a c2be 9753 e13e 27bf 7fbf 27a5 183f
00000150: 53d5 ad3e d083 48bf 612d 08bf dda6 d2bf
00000160: dcad 80bf 71c1 adbf 74a0 4fbf 25a6 2e3f
00000170: f96d ef3e c6c7 3e3d e430 bb3d 71d0 c1bf
00000180: 98df 183f b6d1 603e bb84 53bf 5708 333f
00000190: 3197 84be 7619 dcbf 1dcc d23e c13d 8fbe
000001a0: 1689 c2be 840a 0a3c 5d61 cbbf 3086 093c
000001b0: 2c06 3a3e 9d43 d2be 5619 e6bd 863b 543e
000001c0: 5896 d4bf 0156 bebf 54e2 8ebf e1b9 75bf
000001d0: 90d9 5bbf 6a2f e73e 984c 6c3f cc48 ca3e

l3.bias f4 [15]
0.25420156 -0.049308322 -0.25878307 0.46807796 -0.41336906 -0.23427366 0.1827068 0.45039088
-0.30596253 0.13332933 -0.2703283 -0.11938756 -0.30192745 -0.32517833 -0.30088052
00000000: b526 823e 86f7 49bd 377f 84be eaa7 ef3e
00000010: 1ca5 d3be 6fe5 6fbe 7e17 3b3e a299 e63e
00000020: 1fa7 9cbe 7c87 083e 7968 8abe 7781 f4bd
00000030: 3c96 9abe c67d a6be 030d 9abe
